logic/weights_val_min.npy (npy, 6248 bytes, 1 tensors)

array f8 [771, 1]
0	0xbfdaf37c40b13aa8	-0.4211111671219592
1	0x3fa7512ad838efdd	0.04554113282617298
2	0xbfc475c29a8df99a	-0.15984375521288713
3	0x3fab7291e677f60a	0.053608474143384724
4	0x3fa246255a0c7a72	0.035691420786169284
5	0x3f970cdc35a8330a	0.022509995245900284
6	0x3f92b46ec5a0d1ea	0.018266421139019252
7	0x3fc43543ac91d22c	0.15787549902201314
8	0xbfc300580fb3051c	-0.14844799772803519
9	0xbfb200ae4934959d	-0.07032288825265316
10	0xbf88c4d2d604a63f	-0.012094161182704897
11	0x3fc44d8a6a181de4	0.1586163538015476
12	0x3f93afb48553b180	0.019224949491147836
13	0x3fc9076e7fe90a46	0.1955392956316066
14	0x3f911bdf90cb353e	0.01670789071322542
15	0x3fd4fa34594bc57b	0.3277712699919772
16	0xbfc9384118b0b90f	-0.19702924447614875
17	0x3fbe511d665c3a4b	0.11842521428136725
18	0xbfca8be4742d0307	-0.20739417717597794
19	0x3fc2e40f82b5d5ff	0.14758485681856823
20	0xbfd8bbb9b8b28c87	-0.38645785366879476
21	0xbfdddc36b88bb6ee	-0.46656578084990386
22	0x3f760158d45dfbf8	0.005372378340211086
23	0xbfaf69a984448f06	-0.06135301341626413
24	0xbfc458f45c965d5e	-0.15896467705600065
25	0xbfcf26752b62b32c	-0.24336113565859685
26	0x3fc479649359fcb6	0.159954616497975
27	0xbf91137b0a5a0062	-0.016675875193414298
28	0x3f83ffe7aa1ebda8	0.009765443686631084
29	0xbfb89e4dfdf869f8	-0.09616553736160671
30	0x3fbd511d775c256a	0.11451896823941402
31	0x3fd15d8a42ae0260	0.271334233395498
32	0x3f7691646aad0684	0.005509750607247125
33	0xbfa00ccc92e14d2f	-0.031347649507234336
34	0x3fa6fb7623c3a8b8	0.0448872488648972
35	0x3f87f5447ea5d0de	0.011698279490453375
36	0xbfc84a47ac19bc16	-0.1897668447813607
37	0xbfc7a6796d4863f0	-0.1847678931815433
38	0xbfb65c42d887e3a2	-0.0873452929153147
39	0x3fd227329f199b48	0.2836424401961506
40	0x3ff67bcdc304867a	1.4052255266073232
41	0x3fa6dcbf49bbdadc	0.04465291762419607
42	0xbfb61553c1cd946c	-0.0862629268791168
43	0xbfe581e86d790aff	-0.6721079004422278
44	0x3fdd1691aa47f275	0.45450250271804943
45	0xbfb32faa8214a098	-0.07494607616229343
46	0x3fde7f2ab2b5a70f	0.47651164486033876
47	0x3fe00c327ea83064	0.5014889215249352
48	0xbfc0121989fd14fe	-0.1255523608944386
49	0x3fc523fca1323822	0.16516073103815737
50	0x3fd3a50674bbcc08	0.30694734000934476
51	0x3fe027fb89679e30	0.504880684250514
52	0xbfbf339ec831d3a8	-0.12188141238750794
53	0x3fb4048d27f81234	0.07819444871717779
54	0xbfc97446f3eca324	-0.19886099729890205
55	0xbfcfb352553fd028	-0.24765996134340296
56	0x3fa8937746ba4b3e	0.04800007570624708
57	0xbfc18af086992146	-0.1370525986878965
58	0xbf5e57100959d400	-0.0018518120390613735
59	0x3fd2630a5f594e8e	0.28729495345508205
60	0xbfa3cf981825d056	-0.038693192432135134
61	0xbfc81a92aff4acf7	-0.1883109435233121
62	0xbfcc5ba1eb97e087	-0.22154640201165796
63	0xbfb8518ce077ffe2	-0.09499435882753418
64	0x3fbf4eebd2ff4af4	0.12229799176501982
65	0x3fc628f5550b89b3	0.17312494900313666
66	0x3fcd6e545a0fa7b0	0.22992948911206446
67	0x3fc4e9da3e4250fb	0.16338661231987558
68	0x3fc36251815ee8b0	0.15143793885164802
69	0xbfad83c2109f8950	-0.05764585926933086
70	0x3fb9cf128e215d53	0.10081592531183974
71	0xbf72641b63206929	-0.004490000706960631
72	0xbfb1e51d063a8674	-0.06990224268022321
73	0xbfca258470305dc6	-0.20426993825888767
74	0x3fabd36d6ef34d66	0.0543474386155605
75	0x3f7a6ab04d23ec3e	0.00644940250117104
76	0x3faadcd611c5bd3e	0.05246609656284783
77	0x3fc7b739320ffe20	0.18527903503853427
78	0xbfb3369c1212b000	-0.07505202714190773
79	0xbfb78a6ba2b8c364	-0.09195587847422143
80	0xbff1a529a6c91868	-1.1028229250964845
81	0xbf91c18c59623560	-0.01733989043764461
82	0xbfda06e67b4f8a68	-0.40667116205273723
83	0x3fe959a694e27313	0.7921936900998808
84	0xbfe23397fd1c57d6	-0.5687980598038347
85	0xbfc4c83e768d7990	-0.1623609618063253
86	0x3fcd6753bbf1a1ef	0.2297157924360955
87	0xbfb87bb509c5df08	-0.09563762177083046
88	0x3fcf9967745cd50c	0.24686902219551887
89	0x3fe055379e89b28c	0.5104024979060156
90	0x3fc540b3643413e0	0.166037010123687
91	0xbfb43a995b662402	-0.07901915055676059
92	0x3fb5c9fa2d8a6ca4	0.08511317836603155
93	0x3fcf790e005be9c5	0.24588179605036778
94	0xbfab2297635e693c	-0.05299828613279309
95	0xbfcffca7702a6470	-0.24989788987003037
96	0xbfc666751eca1a8f	-0.17500175479309063
97	0x3fbd063536969eac	0.11337597449039077
98	0x3fb0cbc513ad3484	0.06560928087601964
99	0x3fb5b8b768f9efbc	0.08484979927919672
100	0x3ff485399beb1e2d	1.2825256434024468
101	0x3fc14d6d7cb658d2	0.13517540540187284
102	0xbfd8a606d549285b	-0.38513346508682894
103	0xbfe21c4f7eaeb26a	-0.5659558748498743
104	0x3fe3585851b4a716	0.6045343013586002
105	0xbfc2f71aec1a09c8	-0.14816605118183035
106	0x3fd86283a74ecdf7	0.38101283396392155
107	0x3fcdc00563eb70c8	0.23242251757517907
108	0x3fae767a83777da8	0.0594976697427641
109	0x3fd1486c2d1910ae	0.27004532245724533
110	0xbfb32db2b7ad7c2c	-0.07491604790037404
111	0x3fa3ba79e82c0948	0.038532075492201445
112	0x3faefc1d1f9f8528	0.06051722537064058
113	0x3fcf5b2b691c19c2	0.24496977455437557
114	0x3fa4e96e4c0f6c20	0.040843436035821634
115	0x3fbbd446969da424	0.10870782067435464
116	0x3fcd06d09623092c	0.22677047091389946
117	0x3fd3a15345d5eab0	0.3067215139377977
118	0x3fd2d5594a9d77c6	0.2942717770255253
119	0x3faeaa2ed1986bbc	0.05989214237725757
120	0x3fed3f1c1ce489c6	0.913953834944828
121	0x3fae923e8ab09d48	0.05970950549117987
122	0xbfe52286752d511e	-0.6604645050634053
123	0xbfd5aaa72677643c	-0.3385408282898117
124	0x3fe275340f947c45	0.5768070511147775
125	0x3fd21e3f70662a02	0.28309617973778256
126	0x3fd72d7380404fe0	0.36214911961110197
127	0xbfbb2574b0308668	-0.10604028035643298
128	0x3fc5d8444b05dcde	0.1706624380419503
129	0x3fe59f0f2c40685e	0.6756664146698872
130	0x3fc5f8b013ce1120	0.1716518494323589
131	0xbfcf0f73d24ddc26	-0.2426590706706701
132	0x3fb7f5722936876a	0.09358895784546709
133	0xbfc74a2a04291d3d	-0.1819508095088426
134	0x3fb301849743b540	0.07424191182118012
135	0x3f88e8f14a5010b0	0.01216305263552217
136	0x3fcff11e84ce87d8	0.2495458744497785
137	0xbfc1e4671f0e9406	-0.13978280083134126
138	0x3fd3f81b52730572	0.3120182328385318
139	0x3fc14a4514d5eadd	0.1350790359245683
140	0x3fe1ea1e45bc9356	0.559828888134329
141	0x3fbd17f4c9cb4df0	0.11364679266562638
142	0x3fd350cfab16cd3b	0.3018073244849863
143	0x3fd913d296a23762	0.3918348761588871
144	0xbfe3bf493b9e8c80	-0.6171003498497072
145	0xbfd17f1ece7e0a42	-0.2733838097121045
146	0x3fcf25e780a5564c	0.24334424764190243
147	0xbfc1a1352e9e7069	-0.13773216987908946
148	0xbfa213b494783e98	-0.035306590198272036
149	0x3fea2ca20c3bd4e9	0.8179483641567035
150	0x3fc911fc3b4816bf	0.1958613671742366
151	0x3fb07029505d4e20	0.06421144687674785
152	0xbfc4c7baf913c096	-0.1623452869603212
153	0xbfd12889292fb010	-0.2680991079530495
154	0x3fbaa335890af50c	0.1040528735711243
155	0x3fc346c879e024f2	0.15059762907939206
156	0xbfcd0bf4fd4d020a	-0.22692739837840775
157	0x3fa967cd6d08b834	0.049620074806043496
158	0xbfc2fa5615b1d886	-0.14826465663253802
159	0x3fbc1c9bef6c5a57	0.1098115405587604
160	0x3fa6c885156dc5e8	0.044498595109768335
161	0x3fc3b1cd2df5ec82	0.15386357063457373
162	0xbfcfaea01c1dcfe1	-0.24751664517282193
163	0xbfbfae410032c1d6	-0.12375265364494878
164	0x3f9d55273784f8d0	0.02864514614452035
165	0xbfc21ce3ed1dbf55	-0.1415066631120633
166	0xbfc310c3aeed7b78	-0.14894910851850418
167	0xbfca46156b16f4bc	-0.20526378373134502
168	0x3fad970f7e644e60	0.05779312532299907
169	0x3f70f66c1fc9a620	0.004141256675759958
170	0xbfb7c7f7d2a6afe1	-0.09289502041673316
171	0xbfcc869b4e4c1279	-0.22285786936858523
172	0xbfcc9549d35d7d84	-0.22330591984335169
173	0xbfb148013b2c84a4	-0.06750495619464175
174	0xbfbf6ea6ded69e04	-0.12278216305150386
175	0xbfcc85caae76f1b2	-0.22283299940853635
176	0xbfb86c889e0aaccb	-0.09540609224738998
177	0xbfc16048bfa657e0	-0.13575085981273016
178	0x3fc4484fb7d2cdfa	0.15845676875834142
179	0xbfce991a7241e708	-0.23904734209991596
180	0x3fe728db896812ab	0.7237374957772621
181	0x3faebf65bc035b40	0.060053996277636745
182	0x3fc86984882351eb	0.19072014472352747
183	0x3fb363d801b3ba4e	0.07574224511675107
184	0xbf866810c470b864	-0.010940676684267632
185	0x3fcd948ec209e3bb	0.23109611963789498
186	0xbfbe41c1254017cb	-0.11819083365853016
187	0xbfd0654c6d22222d	-0.2561827722315993
188	0x3fc84f77b962d9b5	0.18992516090447756
189	0x3fd02c2fa2810d4b	0.25269690389196303
190	0xbfb04a562f6e8bc6	-0.06363428743365693
191	0x3fc5ef044cedb8b1	0.17135671383170384
192	0x3f862e7d46913d83	0.01083085891346403
193	0xbfc0afbd3702f4fe	-0.13036313234434965
194	0xbfb5cc3b6ef6cdd5	-0.08514758547862951
195	0xbf927128cec80182	-0.0180097938737176
196	0xbfb99a37f37273ce	-0.10000943845302787
197	0x3fc61eedbb1bd4ad	0.17281886707465813
198	0x3fcf66fa6d856315	0.24533014629084762
199	0x3fb57b54b990fb4c	0.08391313105037773
200	0xbf89477fcfb851eb	-0.012343405272113158
201	0xbfc5a1b1279aa815	-0.16899694856448436
202	0x3f979277d6aaafba	0.023019669034212355
203	0x3fcc8b990c20490f	0.2230101880273385
204	0x3fcb73de84bd75bb	0.21447354775857072
205	0x3fc86d46cd0fecda	0.19083485615542523
206	0xbfa9670938038453	-0.04961422737847756
207	0x3f96aea53fad4d31	0.022150594722302578
208	0xbfb4e4569e549864	-0.08160916676988134
209	0xbf9fc664ceaca4fc	-0.03103024970474609
210	0xbfc75d65616ca42f	-0.18253772027063195
211	0xbfcbc3d1ecbda462	-0.21691345271691193
212	0xbf9ac83bb8db0e94	-0.026154454381652828
213	0x3fd0f33f43c9dc0c	0.2648466264722067
214	0xbfd0b3a83769fc68	-0.26096539889835535
215	0xbfab73d26acb8560	-0.053618026291369913
216	0x3f9e97bad1be8bf8	0.029875678111817877
217	0xbf9d2172f934f036	-0.028447910747886072
218	0xbfc2eb14e85e6181	-0.14779912325026248
219	0xbfb414b2a44a558d	-0.07844082365985212
220	0xbfaa98ad6c20ade2	-0.05194608635823862
221	0xbfb4d5ca2eeaca0b	-0.0813871731323063
222	0x3fb376789422eda5	0.07602647415745041
223	0x3fcb29562bfeb43d	0.2121989931887657
224	0xbfc73ca77665abd9	-0.18153851777182586
225	0x3f6921975c5d74c0	0.0030677753701825183
226	0xbfc3e4c7b43b0a32	-0.15541931438754514
227	0x3fc79d1cc8f48547	0.1844821912027703
228	0xbfbbf6fb9bac112d	-0.1092374091204575
229	0x3fb36a9fc5fc87e7	0.07584570487645657
230	0xbf9c93167f8a97ed	-0.02790484574747858
231	0xbf86317f06caa090	-0.01083659400440265
232	0xbfd01accfb282b3b	-0.25163578536073644
233	0xbfb4cc94d7584c68	-0.08124666459507213
234	0xbfb2312cdb9c63b2	-0.07106285440057894
235	0xbfb75fc98a315d94	-0.09130534767006387
236	0xbfa34faf334b536f	-0.03771731854582227
237	0x3fbc4f4b98a0a294	0.11058495022065024
238	0x3fca3ee24ed37f6a	0.20504406784948098
239	0xbf94a0b8933fe6c2	-0.020144351947215318
240	0xbfde2eed2970f142	-0.47161416098585474
241	0x3f9937d5967da750	0.024627053556663114
242	0xbfa3347daee57705	-0.037509849166538024
243	0x3fc2e6d06ef74168	0.1476688901734733
244	0x3fbdccb48caf6f54	0.11640480456065677
245	0xbfd2339519a25c96	-0.2843983412107688
246	0x3fb230989e7276f8	0.07105401867235261
247	0x3fbbc84948583f92	0.10852487579563633
248	0x3fc13ef9e996a934	0.13473438172997876
249	0xbf9407ab432eb07c	-0.019560504889952743
250	0x3fadd2c656a7a32d	0.05824870879934561
251	0xbfc2e81dad3a18af	-0.14770861585947645
252	0xbfc62e1d8a69f857	-0.17328233011716307
253	0x3fd279b42ba91bcc	0.2886782099125724
254	0xbf9906f34e4d1280	-0.02444057622348561
255	0xbfb1f383a3167c35	-0.07012198192249815
